…
rId":"00554470259111997069"}},"outputId":"0a3ca99e-d84f-40a5-f35e-9c4c2791cb76"},"execution_count":null,"outputs":[{"output_type":"execute_result","data":{"text/plain":["========================================================================================================================\n","Layer (type (var_name))                  Input Shape          Output Shape         Param #              Trainable\n","========================================================================================================================\n","Generator (Generator)                    [128, 100, 1, 1]     [128, 3, 64, 64]     --                   True\n","Sequential (main)                      [128, 100, 1, 1]     [128, 3, 64, 64]     --                   True\n","    ConvTranspose2d (0)               [128, 100, 1, 1]     [128, 512, 4, 4]     819,200              True\n","    BatchNorm2d (1)                   [128, 512, 4, 4]     [128, 512, 4, 4]     1,024                True\n","    ReLU (2)                          [128, 512, 4, 4]     [128, 512, 4, 4]     --                   --\n","    ConvTranspose2d (3)               [128, 512, 4, 4]     [128, 256, 8, 8]     2,097,152            True\n","    BatchNorm2d (4)                   [128, 256, 8, 8]     [128, 256, 8, 8]     512                  True\n","    ReLU (5)                          [128, 256, 8, 8]     [128, 256, 8, 8]     --                   --\n","    ConvTranspose2d (6)               [128, 256, 8, 8]     [128, 128, 16, 16]   524,288              True\n","    BatchNorm2d (7)                   [128, 128, 16, 16]   [128, 128, 16, 16]   256                  True\n","    ReLU (8)                          [128, 128, 16, 16]   [128, 128, 16, 16]   --                   --\n","    ConvTranspose2d (9)               [128, 128, 16, 16]   [128, 64, 32, 32]    131,072              True\n","    BatchNorm2d (10)                  [128, 64, 32, 32]    [128, 64, 32, 32]    128                  True\n","    ReLU (11)                         [128, 64, 32, 32]    [128, 64, 32, 32]    --                   --\n","    ConvTranspose2d (12)              [128, 64, 32, 32]    [128, 3, 64, 64]     3,072                True\n","    Tanh (13)                         [128, 3, 64, 64]     [128, 3, 64, 64]     --                   --\n","========================================================================================================================\n","Total params: 3,576,704\n","Trainable params: 3,576,704\n","Non-trainable params: 0\n","Total mult-adds (G): 54.83\n","========================================================================================================================\n","Input
…
i":"https://localhost:8080/"},"outputId":"862dc94b-f79a-4988-854f-7bfa0072c8f9"},"execution_count":null,"outputs":[{"output_type":"execute_result","data":{"text/plain":["========================================================================================================================\n","Layer (type (var_name))                  Input Shape          Output Shape         Param #              Trainable\n","========================================================================================================================\n","Discriminator (Discriminator)            [128, 3, 64, 64]     [128, 1, 1, 1]       --                   True\n","Sequential (main)                      [128, 3, 64, 64]     [128, 1, 1, 1]       --                   True\n","    Conv2d (0)                        [128, 3, 64, 64]     [128, 64, 32, 32]    3,072                True\n","    LeakyReLU (1)                     [128, 64, 32, 32]    [128, 64, 32, 32]    --                   --\n","    Conv2d (2)                        [128, 64, 32, 32]    [128, 128, 16, 16]   131,072              True\n","    BatchNorm2d (3)                   [128, 128, 16, 16]   [128, 128, 16, 16]   256                  True\n","    LeakyReLU (4)                     [128, 128, 16, 16]   [128, 128, 16, 16]   --                   --\n","    Conv2d (5)                        [128, 128, 16, 16]   [128, 256, 8, 8]     524,288              True\n","    BatchNorm2d (6)                   [128, 256, 8, 8]     [128, 256, 8, 8]     512                  True\n","    LeakyReLU (7)                     [128, 256, 8, 8]     [128, 256, 8, 8]     --                   --\n","    Conv2d (8)                        [128, 256, 8, 8]     [128, 512, 4, 4]     2,097,152            True\n","    BatchNorm2d (9)                   [128, 512, 4, 4]     [128, 512, 4, 4]     1,024                True\n","    LeakyReLU (10)                    [128, 512, 4, 4]     [128, 512, 4, 4]     --                   --\n","    Conv2d (11)                       [128, 512, 4, 4]     [128, 1, 1, 1]       8,192                True\n","    Sigmoid (12)                      [128, 1, 1, 1]       [128, 1, 1, 1]       --                   --\n","========================================================================================================================\n","Total params: 2,765,568\n","Trainable params: 2,765,568\n","Non-trainable params: 0\n","Total mult-adds (G): 13.29\n","========================================================================================================================\n","Input
…
